rl-prep/checkpoint.pth (torch, 20774 bytes, 6 tensors)

fc1.weight f4 [64, 3]
000000 e8 a3 8d bb 13 93 9e 3e 7e 4b f3 be c9 8b d9 be
       -0.0043225177 0.30971584 -0.47518533 -0.4248946
000010 b1 b4 63 be 53 89 1e 3e 13 20 9f 3d 2f 73 fe 3e
       -0.22236897 0.15482073 0.077697895 0.49697253
000020 48 a7 21 be d2 70 1c 3e 9e ab 32 be ea 6b e8 bd
       -0.15786469 0.15277413 -0.1744828 -0.11348708
000030 bd 33 0d bf d6 c5 c3 be 84 b5 73 be bc af 79 3d
       -0.5515707 -0.38236874 -0.23799711 0.06095861
000040 a3 0c 21 3e d0 86 a1 3e d2 66 c8 be 69 b9 80 be
       0.15727477 0.31548166 -0.39140946 -0.25141457
000050 83 bc 56 3e fe 25 1f 3f ab d3 07 be 7d fa be 3e
       0.20970349 0.62167346 -0.13264339 0.37300482
000060 ed 78 df bd e6 06 1d 3d 24 ab fa 3e e3 b6 e7 be
       -0.10911737 0.038336657 0.48958695 -0.4525672
000070 78 1e 91 be 5e 26 6f be df 5c 83 be 18 5e 09 3f
       -0.28343558 -0.2335448 -0.25656793 0.536592
000080 a4 9a bf be 70 13 88 be 3c 85 ce be df 6c 0a bf
       -0.3742267 -0.2657733 -0.40336025 -0.54072374
000090 7f 76 e2 be 51 16 fd 3e 79 15 ae 3e f5 3e a2 3e
       -0.4423103 0.4943109 0.34000757 0.31688657
0000a0 fe fc 6b 3c 1a 17 a9 be d5 0b c8 3d 6b 00 0a bf
       0.01440358 -0.33025438 0.09767882 -0.5390689
0000b0 ce 97 d5 be 56 96 d2 be 22 b0 83 3e 21 87 47 3e
       -0.4171738 -0.41130322 0.25720316 0.19485141
0000c0 e7 c5 be be 9a 97 de bb f6 31 c4 3e bf 84 17 3f
       -0.37260363 -0.0067929747 0.38319367 0.5918693
0000d0 c7 d9 41 3e 18 df a0 3b 0b ca 19 3f 34 b7 5c be
       0.18930732 0.0049094073 0.6007392 -0.21554261
0000e0 78 1a 12 3d d2 2e e5 be ea e0 cc be 2e b4 98 be
       0.035669774 -0.44762284 -0.40015346 -0.29824966
0000f0 a7 8a dd 3e 30 a8 46 3e 8f ae 89 be cc cd 4c 3e
       0.43269846 0.19400096 -0.2689099 0.2000038
000100 39 8b 74 3e fc eb 47 be ee 1e cd bd fa 0f 4d 3d
       0.23881234 -0.19523615 -0.10015665 0.050064065
000110 e1 49 b7 3e ed ac 35 3f d4 cf a7 be 32 71 07 bf
       0.35798553 0.7096699 -0.32775748 -0.529071
000120 f1 37 c3 3e 96 53 fc 3e a7 b8 eb 3e b6 20 3e 3f
       0.38128617 0.4928252 0.46039316 0.7426866
000130 4e 4e 56 3d 99 86 00 bf ed db 26 3e 26 d5 b2 be
       0.05232077 -0.5020538 0.16294833 -0.34928244
000140 75 00 0f bf 21 24 1d 3f 85 c0 c8 3e b1 6f 13 bf
       -0.5586007 0.61383253 0.3920938 -0.575923
000150 98 d0 98 3e 7c 92 03 bd 22 ee 25 be e7 0b c6 be
       0.29846644 -0.03212212 -0.16204122 -0.38680956
000160 4e 38 15 3e 2e da ab be 89 61 4d 3e 72 19 89 3e
       0.1457226 -0.33564895 0.20056738 0.26777226
000170 d1 cc ad 3e c8 7e c6 3e 8a b7 e2 be c8 c1 bf be
       0.33945325 0.387686 -0.44280654 -0.3745253
000180 64 99 93 3e 10 7b f7 3d 6e 98 e6 be cb 1b ec be
       0.28827965 0.12084019 -0.4503817 -0.46114954
000190 6a 98 fa 3e b2 f1 c2 3e f7 e3 80 be 38 cc 14 be
       0.48944408 0.38075024 -0.25173923 -0.14531028
0001a0 ac cb 0c bf dc 05 2a bc 52 9b de be ff 03 e4 be
       -0.5499828 -0.010377374 -0.43477875 -0.445343
0001b0 10 4d 02 bd 94 88 b1 3d f6 1d 72 be 9b 8e ef 3e
       -0.031811774 0.08668628 -0.23644242 0.46788487
0001c0 a3 fa 96 be 9b 13 01 3f 3e b1 ee 3e d5 25 ec be
       -0.29488096 0.5042054 0.466196 -0.46122614
0001d0 b5 1b b1 bd d2 e0 cc bd 1b 5a f2 bc 44 e5 ce 3c
       -0.08647863 -0.100038186 -0.029583981 0.025255807
0001e0 d7 0c a1 3e 87 b3 86 3c 45 5c 9c be 3b f5 9f 3e
       0.3145511 0.016443027 -0.30539146 0.31241783
0001f0 bd f2 05 bf a4 ed d3 be 77 85 80 be d1 6e 82 be
       -0.52323514 -0.41392243 -0.25101826 -0.2547517
000200 17 81 86 be 6c 48 f2 be 69 84 fb bd 9c bf fc 3d
       -0.26270363 -0.47320879 -0.122811146 0.12341234
000210 8f 80 f3 be 06 55 e7 bb a9 be e5 3e d2 1a 73 bd
       -0.4755902 -0.007059696 0.44872025 -0.05935175
000220 92 72 83 3c d1 02 4c bd c7 27 48 3e 11 80 b5 3e
       0.016045842 -0.049807373 0.19546424 0.3544927
000230 fe 96 00 3f 10 8d ab 3e 87 24 ec 3e 5f 3e 39 bd
       0.50230396 0.3350606 0.46121618 -0.045225497
000240 07 3c 34 bf d5 7c e7 bd 63 f2 c6 3e 74 23 18 bd
       -0.70404094 -0.11303107 0.388568 -0.037143186
000250 15 19 9b be 39 86 e2 be 0c 52 0a bf dc 7d f9 be
       -0.30292574 -0.4424303 -0.54031444 -0.48728836
000260 3e d6 ef bd 27 ee c0 3e b5 eb 9b 3e d3 3d 1a bf
       -0.11710785 0.37681696 0.30453268 -0.60250586
000270 9a 09 01 3f 8a c1 d1 be e0 c1 a6 bd d7 b7 6f be
       0.50405276 -0.4096797 -0.081424475 -0.23409973
000280 39 c0 e3 bd 82 28 e8 bd 57 cd f1 be 80 22 d0 be
       -0.11120648 -0.11335851 -0.47226974 -0.4065132
000290 a2 a3 c1 3d b0 a8 f4 3b 01 49 86 be 03 b5 5e 3e
       0.094550386 0.007466398 -0.26227573 0.21748738
0002a0 46 a3 37 bf 1a 28 93 bd a8 3d 05 3f bd 1d 93 be
       -0.7173351 -0.07185383 0.52047205 -0.28733626
0002b0 91 2d 02 3f d5 b7 71 3d 9e 62 05 bf 07 07 bb 3e
       0.5085078 0.059013207 -0.521036 0.365288
0002c0 a8 71 88 bd 03 6b bb be 49 ad cf 3e 22 44 be be
       -0.06662303 -0.3660508 0.40561894 -0.37161356
0002d0 57 b6 88 bd 82 de 27 be 92 dc d2 3e e6 ae 8a 3e
       -0.066754036 -0.16393474 0.41183907 0.27086562
0002e0 16 d8 85 3e 66 8b e8 3d 95 2b 0e be 00 ab f8 bd
       0.26141423 0.11354713 -0.13883813 -0.12141991
0002f0 e9 99 f3 be 9f ac cb 3e 72 82 dd 3e 1c fb b8 3e
       -0.47578362 0.39780137 0.43263584 0.3612908

fc1.bias f4 [64]
000000 1e 83 d0 be 28 f1 d2 3c 63 08 c3 be 97 b9 a2 be
       -0.40725034 0.025749758 -0.38092336 -0.3178222
000010 eb 3f ac be 15 a6 f2 3d 67 27 b0 be 37 57 9d bd
       -0.33642516 0.11848084 -0.34405062 -0.076826505
000020 de ae 35 3d 53 52 f7 3e b5 55 d0 be 70 ef ca be
       0.04435622 0.48304996 -0.4069039 -0.396358
000030 52 12 ac be 26 f7 c6 3e a3 84 54 be 84 c4 d5 3e
       -0.33607727 0.38860434 -0.20753722 0.41751492
000040 93 d8 6f 3e f5 78 56 3c 23 e0 49 3d c6 bd e9 bd
       0.2342246 0.013090362 0.04928602 -0.114131495
000050 61 0a 0d 3d 59 30 64 be ae 37 56 bd b7 d7 c1 3d
       0.034433726 -0.22284068 -0.052299194 0.094649725
000060 5c 4d e1 be ec 24 90 be 30 80 ea 3e 73 a6 02 bf
       -0.44004333 -0.2815317 0.45800924 -0.5103523
000070 d6 28 8c bd 9c f1 08 3f d4 05 13 3e ab 1c 8d 3d
       -0.06843726 0.53493667 0.14357692 0.068902336
000080 1e 16 00 bf d2 44 7c 3e 75 8d d2 be 8c d2 27 be
       -0.5003375 0.24635628 -0.41123548 -0.16388911
000090 08 5c 46 be b1 63 88 bd 07 7a 03 bc 7e fd bc 3e
       -0.19371045 -0.066596396 -0.008024699 0.3691215
0000a0 1d 73 d5 3c 0d c3 01 3f 0d a5 c7 3e 72 e2 ba be
       0.026055867 0.5068825 0.3899311 -0.3650089
0000b0 1a 47 98 3e f9 f5 d0 be da 7a 86 be 4b 1b 8d 3d
       0.29741746 -0.40812662 -0.26265603 0.06889971
0000c0 53 31 ba 3e 21 25 d1 3e 9d 51 3e be ff 7c f4 bc
       0.36365756 0.4084864 -0.1858582 -0.029844759
0000d0 88 ef 92 3e 16 f0 0e bf 18 79 08 3f e7 70 f4 be
       0.28698373 -0.5583509 0.53309774 -0.47742388
0000e0 01 83 a9 3c 6c b2 04 be b0 af 9b be 83 b6 70 3b
       0.02069235 -0.12958688 -0.30407476 0.003672988
0000f0 81 b5 ea 3e 4f 9f 4b be 7a 7f af be 34 c8 69 be
       0.45841601 -0.1988499 -0.34276944 -0.22830278

fc2.weight f4 [64, 64]
000000 e6 bb fd bd 1c 1d 67 3d 4e 3f af bd d0 d6 aa bd
       -0.123893544 0.056424245 -0.08556996 -0.083417535
000010 62 7b 93 bd cc b2 b6 3d 24 92 87 3d b1 42 74 3e
       -0.07201268 0.089208215 0.06619671 0.23853566
000020 22 d9 ff 3c 9f d0 f7 bd 97 a0 ff bd 98 42 17 3d
       0.031231467 -0.12100338 -0.12481802 0.036928743
000030 be 55 11 be 49 23 58 3d 1c 40 72 bd be 1c 97 bd
       -0.14192864 0.052768026 -0.05914317 -0.07378529
000040 b7 a5 37 be 72 71 9c 3d 62 14 a2 3d 50 3e e4 bd
       -0.17934309 0.076388255 0.07914044 -0.11144698
000050 34 da 0f 3e 7d a9 4b bc 27 5c 0a 3d 68 35 e9 3d
       0.14048082 -0.012430546 0.03377929 0.113871396
000060 29 94 88 3d a9 f2 22 3d d8 5c bd bd a7 4a 1d 3e
       0.06668884 0.0397822 -0.09246224 0.15360509
000070 ec 2d 15 3e 09 26 aa 3d 05 a8 7b bc 3f 8c d4 3d
       0.14568299 0.08308036 -0.015359883 0.10378312
000080 18 2a ea bc bc af 83 bc 52 ea 9b bd ac 28 2d 3d
       -0.028584525 -0.016075008 -0.076130524 0.042275116
000090 80 e0 21 3d d6 a1 0d 3e 5f 2d fc 3c 61 84 90 bd
       0.03952074 0.13831267 0.030783353 -0.07056499
0000a0 a0 04 e7 3d 6b cb 9f bd 66 d3 04 3c 6c 29 2c bd
       0.11280179 -0.07802471 0.008107042 -0.04203169
0000b0 24 88 0a be e0 f4 b7 3c 03 55 4f bc 7f 95 5b 3d
       -0.13528496 0.022455633 -0.012654546 0.053609367
0000c0 58 e7 09 bc 1c 7a db bd 98 7e aa 3c 59 83 94 3d
       -0.008416973 -0.1071665 0.020812318 0.07251615
0000d0 a7 77 02 3e 58 e6 80 bc 99 65 67 be 90 da 9d bc
       0.12740956 -0.015734836 -0.2259735 -0.019269258
0000e0 0b ac 0c be fc c8 d3 bd 74 58 42 3d 96 a6 62 3d
       -0.13737504 -0.10341069 0.047447637 0.05533465
0000f0 f5 d6 3a bd af c5 6e 3d 24 b6 53 3d 0d a7 76 3d
       -0.045615155 0.058293995 0.051687375 0.060217906
000100 90 12 2b 3c 70 b9 7f 3c e7 22 cd bd e0 f2 20 3c
       0.010441437 0.015608177 -0.10016423 0.009823531
000110 b4 45 b1 3d 42 0a f5 3d d8 76 96 3d 31 83 ec 3d
       0.08655873 0.11964847 0.073468864 0.1154846
000120 b6 37 06 bc 2a da 45 bd e4 c9 71 be ca 23 dc bd
       -0.008191993 -0.04830376 -0.23612171 -0.10749014
000130 12 98 07 be 42 eb ec 3d b2 f4 b0 bd 36 1e 1e 3d
       -0.13241604 0.11568309 -0.08640422 0.03860303
000140 a9 53 aa ba 83 2d 2f 3e a2 2d 74 3e 44 56 c6 3d
       -0.0012994903 0.17107205 0.23845533 0.096844226
000150 01 87 95 3c 88 ef 12 3d 66 e7 c6 3d 10 2b 22 3e
       0.018252851 0.035872966 0.097121045 0.1583674
000160 ab ea 57 bd 49 e1 89 3e d6 53 c9 3d 9f be 0d 3e
       -0.05271403 0.2692969 0.098304436 0.13842247
000170 88 e0 bc 3d 67 d2 37 3d de 42 d9 bc 04 d8 38 3e
       0.092225134 0.04487839 -0.026521143 0.18051153
000180 58 42 b8 bc 2a 3b 05 3d 80 e2 b5 3c f8 d6 59 3d
       -0.022492573 0.032527126 0.02220273 0.053183526
000190 e0 fd 2d bd 14 91 9c 3d 73 00 b8 bc a0 9d 36 3d
       -0.042478442 0.07644859 -0.022461152 0.044583917
0001a0 aa 3b 30 bd ef 26 bb bd 64 2f b5 bd b6 1a ca 3d
       -0.04302565 -0.09138285 -0.0884693 0.09868376
0001b0 36 5b 0e bd e8 2e f0 3d 90 27 dc 3d 8c 0c aa bd
       -0.034754954 0.11727697 0.107497334 -0.083031744
0001c0 cf d0 1f be 2b f3 0c 3b 32 41 a6 bd 1d 24 fe 3d
       -0.15606998 0.0021507244 -0.08117904 0.12409232
0001d0 f0 83 9f bc 38 ce 79 bd 0f e5 3b be c6 57 91 bd
       -0.019472092 -0.06098768 -0.18349098 -0.070968196
0001e0 22 18 3a be cf 6f 29 3d 24 41 b7 3d a0 c8 c2 3d
       -0.18173268 0.041366395 0.089479715 0.095109224
0001f0 f3 d1 f8 3d 23 1e 31 3c f4 47 61 3d 6c 99 10 3e
       0.1214942 0.010810408 0.05500026 0.14121026
000200 14 61 29 3d ca ea ff 3d b0 e9 0d 3e 58 24 9f 3d
       0.041352347 0.12495954 0.13858676 0.07770604
000210 2c 32 33 bd a6 af 60 3d 20 54 6b 3c a9 75 36 3d
       -0.04374902 0.05485501 0.014363319 0.044545803
000220 ac c1 9d bd b4 08 0c be 64 f9 97 be 4e dc ab 3d
       -0.077029556 -0.13675195 -0.29682457 0.08391629
000230 f0 d5 83 3e db 80 48 bc c4 24 94 bd 54 ed b9 3d
       0.2574916 -0.012237753 -0.07233575 0.0907847
000240 cf e4 5a 3d b2 b4 49 3c e1 db 92 39 b8 46 eb 3d
       0.053440865 0.0123111475 0.00028011113 0.11488098
000250 15 40 89 3d 50 4d 46 bd 71 77 04 3e ef 56 57 3e
       0.06701676 -0.048413575 0.12936188 0.21029256
000260 d2 6d 32 bd 55 4b c5 3e 6f 1e 92 bd c4 74 f8 3d
       -0.043561764 0.38534036 -0.07134711 0.12131646
000270 d4 16 ca 3e ea ad df ba 3e f9 b4 bd 3d 11 db 3d
       0.3947054 -0.001706538 -0.08836602 0.10696647
000280 dc fa 0a bd 4b ef 04 bd b0 fe 43 3c a2 c1 ec 3d
       -0.033930644 -0.03245477 0.011962578 0.1156037
000290 20 4d db 3b 15 05 94 bd 44 53 2e 3e cf 45 69 3d
       0.0066925436 -0.07227532 0.17023951 0.05695134
0002a0 d1 79 b7 3d 61 a3 bc bd 34 25 6d bd b8 3e be bd
       0.089587815 -0.092108496 -0.057896808 -0.092893064
0002b0 b3 e9 c3 bd 60 78 38 3d 09 16 ca bd b5 75 3e 3d
       -0.09566059 0.045036674 -0.09867484 0.046498973
0002c0 e6 1a a7 3e a8 69 04 bb f0 9e aa bd 7e 17 8d bc
       0.3263771 -0.0020204578 -0.08331096 -0.017223116
0002d0 2e c4 5c 3d 46 27 c3 bd e9 87 ca 3d 24 6a e8 bd
       0.05389803 -0.09528975 0.09889204 -0.1134837
0002e0 ea b3 4a 3e 05 47 b7 bd 68 bb cf bc 15 20 b3 3d
       0.19795194 -0.08949093 -0.025357917 0.087463535
0002f0 0c 0d f1 bd 05 d8 b9 3d cc cf 4c bd 8b 2b 31 3d
       -0.117700666 0.090744056 -0.050002858 0.043254416
000300 20 ca ba 3b 10 d7 e6 bd 1c 5a 33 3e 6e d7 89 3d
       0.0057003647 -0.11271489 0.17514843 0.06730543
000310 80 76 fe 3d f1 21 6c 3d 48 fa a8 bd ba cd 0f 3e
       0.12424946 0.057649557 -0.08250862 0.14043322
000320 26 fb 97 3c 4a 79 c8 bc e8 85 62 be c8 43 13 bd
       0.018552374 -0.024471898 -0.22121394 -0.035953313
000330 95 b6 c2 3d c4 56 5b bd a0 e8 dc 3c a0 a7 d4 bd
       0.09507481 -0.053549543 0.026966393 -0.103835344
000340 6e 11 13 3d 31 d7 83 3d 5f 81 15 3d 0c 49 ab bd
       0.035905294 0.06437529 0.03650033 -0.08363542
000350 8c 77 b4 bd 1d 04 77 bc 34 4e 84 3d 76 e8 5f 3e
       -0.08811864 -0.015076664 0.064602286 0.2186602
000360 e9 9c 88 3d 3b ac 7f 3e 75 29 14 3d 43 2a c0 3b
       0.06670553 0.24968044 0.03617235 0.005864413
000370 b1 f6 c8 3d 34 e9 3f 3d 3f 08 96 bd bc 57 46 3e
       0.09812678 0.04685326 -0.073257916 0.19369406
000380 f8 b7 b4 bd e4 39 8e bd 48 dd d2 bd 5a 97 85 3d
       -0.08824152 -0.069446355 -0.10296112 0.06523009
000390 60 ae 50 bc 2e 08 b8 3d c2 b1 6d 3e 10 cd 7c 3d
       -0.012736887 0.08985935 0.2321234 0.061719
0003a0 b3 e7 df 3c 66 bb a6 bc 47 6a 90 bd 18 17 88 3c
       0.027332162 -0.02035303 -0.07051521 0.016612574
0003b0 49 ae 4f 3d dc 59 b3 bd e1 50 c3 3d d8 dd 93 bc
       0.05070332 -0.08757374 0.09536911 -0.01805012
0003c0 bc f0 96 3d de a4 a8 bd 6a 83 e2 3d 1e 33 0c 3e
       0.07370135 -0.08234571 0.110602215 0.13691375
0003d0 e5 49 d5 bd 6e 8e b4 3d b9 ff cd 3d f8 87 97 3d
       -0.10414485 0.08816229 0.10058541 0.07398981
0003e0 53 a6 e4 3e 31 9d c5 bc 5c ad 21 3d ba 58 3f 3d
       0.44658145 -0.024122806 0.03947197 0.046715476
0003f0 33 e6 23 bd ff 34 c7 3c 2c 4f 13 bd df 18 a2 3d
       -0.040014457 0.024317263 -0.035964176 0.079149

fc2.bias f4 [64]
000000 ef 18 67 bd 6a 8b 21 3d a5 98 e1 3d 4d 0f 39 3c
       -0.056420263 0.039439596 0.11015443 0.011295152
000010 f4 b7 7d bd 40 22 89 3b ba d0 ea bd 6e 78 c7 bd
       -0.06194301 0.004184991 -0.11465593 -0.09739767
000020 52 5d 47 bd 77 ac 9d bd 8a d2 9e 3d 9e 62 29 3d
       -0.04867298 -0.07698911 0.07755001 0.041353814
000030 a1 48 92 3d 88 2c e9 bc b8 69 8e bc 11 cc a0 3c
       0.07142759 -0.028463617 -0.017384395 0.019628556
000040 36 73 20 bd 88 3b 51 bd 36 21 fb bd ce 75 af 3d
       -0.039172374 -0.051082164 -0.12262194 0.08567391
000050 23 c5 b5 3d 22 2a 08 be b3 b3 5c bd 95 39 b3 bd
       0.088754915 -0.13297322 -0.053882312 -0.08751217
000060 3d 61 9a bd 20 8c d7 3d 3b 07 73 3d 9f c6 47 bc
       -0.07538078 0.105247736 0.059333067 -0.012193351
000070 7b 92 ec 3c af 75 13 3d 01 4f b6 3d e8 00 e1 bd
       0.028878441 0.036000904 0.089017875 -0.10986501
000080 ec ec bf 3c b2 74 f2 bd f4 02 13 bd 84 cc 3e bd
       0.023428403 -0.11838664 -0.03589149 -0.04658176
000090 bc af a4 bc 3f d4 0a be 40 e0 4b 3b 68 c0 a7 36
       -0.020103328 -0.13557528 0.0031109005 4.999387e-06
0000a0 9e 7b 6d bd be b5 42 3d 69 a8 06 3e 0a d1 62 bd
       -0.05797922 0.047536604 0.13150181 -0.055375136
0000b0 4d 5f 97 bd 98 73 e7 bd 74 71 a1 bd 80 db 9c bd
       -0.07391224 -0.11301345 -0.078829676 -0.07659054
0000c0 14 41 bd bd ef 56 0d bd ca 06 8d 3d 54 37 20 3d
       -0.09240928 -0.034506734 0.068860605 0.039115265
0000d0 73 1e 0f 3e 11 1f ee 3d 92 d2 6b bd 6d 38 a1 bd
       0.13976459 0.11627019 -0.057573862 -0.078720905
0000e0 13 d3 ef bb 28 70 dd bd aa 7c 9d 3d f8 4c c7 bc
       -0.007318863 -0.10812408 0.076897934 -0.024328694
0000f0 30 5b d6 bd 27 4e f3 bd c8 66 b0 bd 7e 97 4e 3c
       -0.104666114 -0.11880141 -0.08613354 0.012609361

fc3.weight f4 [2, 64]
000000 67 4e 09 3e 36 98 be 3d e8 ba 1c bd fd 88 84 bd
       0.13408814 0.09306376 -0.038264185 -0.06471441
000010 54 3e 63 bd ea e0 ae bd 34 01 04 bd 84 33 02 be
       -0.055479363 -0.08538993 -0.03222771 -0.12714964
000020 47 c7 08 3e 8f a4 fa bd a0 50 bc bd e4 a4 23 3e
       0.13357268 -0.12238418 -0.091950655 0.1598087
000030 dd 67 2b be 60 cd f4 3c 04 c0 bf 3d 9c 3c e2 3d
       -0.1673884 0.029883087 0.09362796 0.110467166
000040 b5 56 33 3d 22 88 6b bd 98 49 92 3d d6 f4 b9 ba
       0.043783862 -0.057502873 0.07142943 -0.0014187347
000050 e2 37 da bb 78 a2 09 bc 82 3a e6 3c 65 83 f1 3d
       -0.006659494 -0.008400552 0.02810407 0.1179264
000060 09 01 85 3e 34 9a 8a 3d 5f b2 98 3c 1a 46 c7 bb
       0.25977352 0.06767693 0.018639741 -0.006081355
000070 a9 c2 27 3d c8 56 ac 3d 5f 23 13 be d6 6d bc 3c
       0.040957127 0.0841499 -0.14368962 0.023001593
000080 92 c4 41 bd 9a c1 87 bd 98 da c5 3d 78 65 d1 3c
       -0.047306605 -0.066287234 0.09660834 0.02556108
000090 cf e5 fa 3c 3e e3 5c bd f8 94 6c 3d 42 8e d3 3d
       0.03062716 -0.053927653 0.057759255 0.10329868
0000a0 13 e5 77 3c c1 ce 72 3d 7e 8d c4 bd d7 b9 3b 3e
       0.015130299 0.059279207 -0.095973 0.18332611
0000b0 b0 3c 76 3d 07 95 5d 3d e6 45 dd 3d f7 81 9d be
       0.06011647 0.0540972 0.10804348 -0.30763218
0000c0 e0 dc f5 bb 3e 19 f8 3d 0c 53 bb 3d 72 7f b7 bd
       -0.007503137 0.121141896 0.09146699 -0.08959855
0000d0 55 c8 17 3d 0e 70 ff 3d b8 3e 0f bb 56 db b0 bd
       0.037056286 0.124725446 -0.0021857452 -0.08635585
0000e0 d8 13 66 3d 24 57 33 bd fc 35 9b 3d 09 47 d6 bd
       0.05617127 -0.043784276 0.07578656 -0.10462768
0000f0 c8 05 03 3d 60 53 db bc 70 39 21 3c fc 55 a1 3d
       0.031987935 -0.026773155 0.009840354 0.07877728
000100 67 d6 2e be 91 b5 11 be f7 7b 16 be be 55 12 be
       -0.17073976 -0.14229418 -0.14695726 -0.1429052
000110 80 6b 5a 3c ac 94 45 3d f8 22 bf bc c2 66 45 bd
       0.013331294 0.048237488 -0.023332104 -0.0481937
000120 1f 9d 66 3d 86 08 20 be de 24 2e 3e 73 06 e0 bd
       0.056302186 -0.15628251 0.17006251 -0.1093873
000130 6e 16 ef 3d ea 6f c1 3d 10 c8 5a 3c 7c d4 1f 3d
       0.116742 0.09445174 0.013353363 0.039021
000140 79 9f 89 bd 0f 19 78 3d e6 d5 95 3d 88 90 04 be
       -0.0671987 0.060570773 0.073161885 -0.1294576
000150 30 45 4f 3e a9 54 c9 3a c0 52 c3 3d 01 bf 99 bc
       0.20241237 0.0015360314 0.09537268 -0.018767836
000160 d1 c5 a9 3d e3 b6 2c be 4a 76 ef 3d d7 83 28 3e
       0.082896836 -0.16866641 0.11692484 0.16456543
000170 e5 bf a9 3d 91 f6 dd 3d 6c c6 6e 3e 50 4f e1 3d
       0.08288554 0.108380444 0.2331788 0.11001456
000180 a6 3f ae bd 9e 0d d2 bd 08 08 b8 3e f0 f3 d7 bc
       -0.08508234 -0.102565035 0.35943627 -0.026361436
000190 ad 13 49 be d9 cf 8a 3d 3c de 8e 3d 52 86 45 3c
       -0.19636412 0.06777925 0.069759816 0.01205595
0001a0 c0 8e 00 bc 57 2a a9 bd 0a 78 63 3e 82 7a 0c 3e
       -0.007846534 -0.08260029 0.2221376 0.13718608
0001b0 6d 92 41 3d a5 d6 aa 3d 7c da 9f be 4e 2c 59 be
       0.047258783 0.083417214 -0.31221378 -0.21208307
0001c0 84 76 dd bd f0 1f 02 3e ca bf fd bd f4 d8 ff bd
       -0.10813621 0.12707496 -0.123900965 -0.124925524
0001d0 f7 ae 7c be 24 3d b2 3d a4 79 be be e6 7d a7 bc
       -0.24676119 0.08703068 -0.3720218 -0.020445775
0001e0 a2 2a a4 bd b4 37 d3 be 4f d6 da bd 0e d1 fc bd
       -0.08015944 -0.41253436 -0.10685407 -0.123445615
0001f0 00 14 fa bc 89 00 e1 be 40 89 57 3b a5 04 bb 3d
       -0.030527115 -0.4394572 0.0032888204 0.09131745

fc3.bias f4 [2]
000000 da 78 c8 bd 8e 59 4b 3d
       -0.097886756 0.049645953
